…
  top: "data_fixed"
  top: "label_fixed"
  include {
    phase: TRAIN
  }
  transform_param {
    mean_file: "examples/cifar10/mean.binaryproto"
  }
  data_param {
    source: "examples/cifar10/cifar10_train_20000"
    batch_size: 80
    backend: LMDB
  }
}
layer {
  name: "cifar2"
  type: "Data"
  top: "data_random"
  top: "label_random"
  include {
    phase: TRAIN
  }
  transform_param {
    mean_file: "examples/cifar10/mean.binaryproto"
  }
  data_param {
    source: "examples/cifar10/cifar10_random_10000"
    batch_size: 20
    backend: LMDB
  }
}
layer {
  name: "concat_label"
  type: "Concat"
  bottom: "label_fixed"
  bottom: "label_random"
  top: "label"
  include {
    phase: TRAIN
  }
  concat_param {
    concat_dim: 0
  }
}
layer {
  name: "concat_data"
  type: "Concat"
  bottom: "data_fixed"
  bottom: "data_random"
  top: "data"
  include {
    phase: TRAIN
  }
  concat_param {
    concat_dim: 0
  }
}
layer {
  name: "conv1"
  type: "Convolution"
  bottom: "data"
  top: "conv1"
  param {
    lr_mult: 1
  }
  param {
    lr_mult: 2
  }
  convolution_param {
    num_output: 32
    pad: 2
    kernel_size: 5
    stride: 1
    weight_filler {
      type: "gaussian"
      std: 0.0001
    }
    bias_filler {
      type: "constant"
    }
  }
}
layer {
  name: "pool1"
  type: "Pooling"
  bottom: "conv1"
  top: "pool1"
  pooling_param {
    pool: MAX
    kernel_size: 3
    stride: 2
  }
}
layer {
  name: "relu1"
  type: "ReLU"
  bottom: "pool1"
  top: "pool1"
}
layer {
  name: "norm1"
  type: "LRN"
  bottom: "pool1"
  top: "norm1"
  lrn_param {
    local_size: 3
    alpha: 5e-05
    beta: 0.75
    norm_region: WITHIN_CHANNEL
  }
}
layer {
  name: "conv2"
  type: "Convolution"
  bottom: "norm1"
  top: "conv2"
  param {
    lr_mult: 1
  }
  param {
    lr_mult: 2
  }
  convolution_param {
    num_output: 32
    pad: 2
    kernel_size: 5
    stride: 1
    weight_filler {
      type: "gaussian"
      std: 0.01
    }
    bias_filler {
      type: "constant"
    }
  }
}
layer {
  name: "relu2"
  type: "ReLU"
  bottom: "conv2"
  top: "conv2"
}
layer {
  name: "pool2"
  type: "Pooling"
  bottom: "conv2"
  top: "pool2"
  pooling_param {
    pool: AVE
    kernel_size: 3
    stride: 2
  }
}
layer {
  name: "norm2"
  type: "LRN"
  bottom: "pool2"
  top: "norm2"
  lrn_param {
    local_size: 3
    alpha: 5e-05
    beta: 0.75
    norm_region: WITHIN_CHANNEL
  }
}
layer {
  name: "conv3"
  type: "Convolution"
  bottom: "norm2"
  top: "conv3"
  convolution_param {
    num_output: 64
    pad: 2
    kernel_size: 5
    stride: 1
    weight_filler {
      type: "gaussian"
      std: 0.01
    }
    bias_filler {
      type: "constant"
    }
  }
}
layer {
  name: "relu3"
  type: "ReLU"
  bottom: "conv3"
  top: "conv3"
}
layer {
  name: "pool3"
  type: "Pooling"
  bottom: "conv3"
  top: "pool3"
  pooling_param {
    pool: AVE
    kernel_size: 3
    stride: 2
  }
}
layer {
  name: "ip1"
  type: "InnerProduct"
  bottom: "pool3"
  top: "ip1"
  param {
    lr_mult: 1
    decay_mult: 250
  }
  param {
    lr_mult: 2
    decay_mult: 0
  }
  inner_product_param {
    num_output: 10
    weight_filler {
      type: "gaussian"
      std: 0.01
    }
    bias_filler {
      type: "constant"
    }
  }
}
layer {
  name: "loss"
  type: "SoftmaxWithLoss"
  bottom: "ip1"
  bottom: "label"
  top: "loss"
}
I0315 05:39:09.839095  4128 layer_factory.hpp:77] Creating layer cifar1
I0315 05:39:09.839172  4128 db_lmdb.cpp:35] Opened lmdb examples/cifar10/cifar10_train_20000
I0315 05:39:09.839205  4128 net.cpp:86] Creating Layer cifar1
I0315 05:39:09.839211  4128 net.cpp:382] cifar1 -> data_fixed
I0315 05:39:09.839228  4128 net.cpp:382] cifar1 -> label_fixed
I0315 05:39:09.839238  4128 data_transformer.cpp:25] Loading mean file from: examples/cifar10/mean.binaryproto
I0315 05:39:09.841012  4128 data_layer.cpp:45] output data size: 80,3,32,32
I0315 05:39:09.844761  4128 net.cpp:124] Setting up cifar1
I0315 05:39:09.844784  4128 net.cpp:131] Top shape: 80 3 32 32 (245760)
I0315 05:39:09.844787  4128 net.cpp:131] Top shape: 80 (80)
I0315 05:39:09.844789  4128 net.cpp:139] Memory required for data: 983360
I0315 05:39:09.844797  4128 layer_factory.hpp:77] Creating layer cifar2
I0315 05:39:09.844871  4128 db_lmdb.cpp:35] Opened lmdb examples/cifar10/cifar10_random_10000
I0315 05:39:09.844887  4128 net.cpp:86] Creating Layer cifar2
I0315 05:39:09.844893  4128 net.cpp:382] cifar2 -> data_random
I0315 05:39:09.844903  4128 net.cpp:382] cifar2 -> label_random
I0315 05:39:09.844909  4128 data_transformer.cpp:25] Loading mean file from: examples/cifar10/mean.binaryproto
I0315 05:39:09.845031  4128 data_layer.cpp:45] output data size: 20,3,32,32
I0315 05:39:09.846967  4128 net.cpp:124] Setting up cifar2
I0315 05:39:09.846985  4128 net.cpp:131] Top shape: 20 3 32 32 (61440)
I0315 05:39:09.846988  4128 net.cpp:131] Top shape: 20 (20)
I0315 05:39:09.846990  4128 net.cpp:139] Memory required for data: 1229200
I0315 05:39:09.846994  4128 layer_factory.hpp:77] Creating layer concat_label
I0315 05:39:09.847005  4128 net.cpp:86] Creating Layer concat_label
I0315 05:39:09.847010  4128 net.cpp:408] concat_label <- label_fixed
I0315 05:39:09.847020  4128 net.cpp:408] concat_label <- label_random
I0315 05:39:09.847035  4128 net.cpp:382] concat_label -> label
I0315 05:39:09.847064  4128 net.cpp:124] Setting up concat_label
I0315 05:39:09.847067  4128 net.cpp:131] Top shape: 100 (100)
I0315 05:39:09.847069  4128 net.cpp:139] Memory required for data: 1229600
I0315 05:39:09.847071  4128 layer_factory.hpp:77] Creating layer concat_data
I0315 05:39:09.847076  4128 net.cpp:86] Creating Layer concat_data
I0315 05:39:09.847079  4128 net.cpp:408] concat_data <- data_fixed
I0315 05:39:09.847081  4128 net.cpp:408] concat_data <- data_random
I0315 05:39:09.847084  4128 net.cpp:382] concat_data -> data
I0315 05:39:09.847101  4128 net.cpp:124] Setting up concat_data
I0315 05:39:09.847105  4128 net.cpp:131] Top shape: 100 3 32 32 (307200)
I0315 05:39:09.847107  4128 net.cpp:139] Memory required for data: 2458400
I0315 05:39:09.847110  4128 layer_factory.hpp:77] Creating layer conv1
I0315 05:39:09.847124  4128 net.cpp:86] Creating Layer conv1
I0315 05:39:09.847127  4128 net.cpp:408] conv1 <- data
I0315 05:39:09.847131  4128 net.cpp:382] conv1 -> conv1
I0315 05:39:10.425870  4128 net.cpp:124] Setting up conv1
I0315 05:39:10.425906  4128 net.cpp:131] Top shape: 100 32 32 32 (3276800)
I0315 05:39:10.425911  4128 net.cpp:139] Memory required for data: 15565600
I0315 05:39:10.425940  4128 layer_factory.hpp:77] Creating layer pool1
I0315 05:39:10.425956  4128 net.cpp:86] Creating Layer pool1
I0315 05:39:10.425959  4128 net.cpp:408] pool1 <- conv1
I0315 05:39:10.425967  4128 net.cpp:382] pool1 -> pool1
I0315 05:39:10.426039  4128 net.cpp:124] Setting up pool1
I0315 05:39:10.426049  4128 net.cpp:131] Top shape: 100 32 16 16 (819200)
I0315 05:39:10.426054  4128 net.cpp:139] Memory required for data: 18842400
I0315 05:39:10.426057  4128 layer_factory.hpp:77] Creating layer relu1
I0315 05:39:10.426064  4128 net.cpp:86] Creating Layer relu1
I0315 05:39:10.426069  4128 net.cpp:408] relu1 <- pool1
I0315 05:39:10.426096  4128 net.cpp:369] relu1 -> pool1 (in-place)
I0315 05:39:10.426323  4128 net.cpp:124] Setting up relu1
I0315 05:39:10.426334  4128 net.cpp:131] Top shape: 100 32 16 16 (819200)
I0315 05:39:10.426340  4128 net.cpp:139] Memory required for data: 22119200
I0315 05:39:10.426344  4128 layer_factory.hpp:77] Creating layer norm1
I0315 05:39:10.426357  4128 net.cpp:86] Creating Layer norm1
I0315 05:39:10.426362  4128 net.cpp:408] norm1 <- pool1
I0315 05:39:10.426370  4128 net.cpp:382] norm1 -> norm1
I0315 05:39:10.428521  4128 net.cpp:124] Setting up norm1
I0315 05:39:10.428550  4128 net.cpp:131] Top shape: 100 32 16 16 (819200)
I0315 05:39:10.428552  4128 net.cpp:139] Memory required for data: 25396000
I0315 05:39:10.428558  4128 layer_factory.hpp:77] Creating layer conv2
I0315 05:39:10.428575  4128 net.cpp:86] Creating Layer conv2
I0315 05:39:10.428578  4128 net.cpp:408] conv2 <- norm1
I0315 05:39:10.428586  4128 net.cpp:382] conv2 -> conv2
I0315 05:39:10.429935  4128 net.cpp:124] Setting up conv2
I0315 05:39:10.429955  4128 net.cpp:131] Top shape: 100 32 16 16 (819200)
I0315 05:39:10.429957  4128 net.cpp:139] Memory required for data: 28672800
I0315 05:39:10.429970  4128 layer_factory.hpp:77] Creating layer relu2
I0315 05:39:10.429978  4128 net.cpp:86] Creating Layer relu2
I0315 05:39:10.429982  4128 net.cpp:408] relu2 <- conv2
I0315 05:39:10.429987  4128 net.cpp:369] relu2 -> conv2 (in-place)
I0315 05:39:10.430619  4128 net.cpp:124] Setting up relu2
I0315 05:39:10.430632  4128 net.cpp:131] Top shape: 100 32 16 16 (819200)
I0315 05:39:10.430634  4128 net.cpp:139] Memory required for data: 31949600
I0315 05:39:10.430637  4128 layer_factory.hpp:77] Creating layer pool2
I0315 05:39:10.430644  4128 net.cpp:86] Creating Layer pool2
I0315 05:39:10.430647  4128 net.cpp:408] pool2 <- conv2
I0315 05:39:10.430654  4128 net.cpp:382] pool2 -> pool2
I0315 05:39:10.430793  4128 net.cpp:124] Setting up pool2
I0315 05:39:10.430799  4128 net.cpp:131] Top shape: 100 32 8 8 (204800)
I0315 05:39:10.430801  4128 net.cpp:139] Memory required for data: 32768800
I0315 05:39:10.430804  4128 layer_factory.hpp:77] Creating layer norm2
I0315 05:39:10.430809  4128 net.cpp:86] Creating Layer norm2
I0315 05:39:10.430812  4128 net.cpp:408] norm2 <- pool2
I0315 05:39:10.430816  4128 net.cpp:382] norm2 -> norm2
I0315 05:39:10.431001  4128 net.cpp:124] Setting up norm2
I0315 05:39:10.431007  4128 net.cpp:131] Top shape: 100 32 8 8 (204800)
I0315 05:39:10.431010  4128 net.cpp:139] Memory required for data: 33588000
I0315 05:39:10.431011  4128 layer_factory.hpp:77] Creating layer conv3
I0315 05:39:10.431021  4128 net.cpp:86] Creating Layer conv3
I0315 05:39:10.431025  4128 net.cpp:408] conv3 <- norm2
I0315 05:39:10.431027  4128 net.cpp:382] conv3 -> conv3
I0315 05:39:10.432492  4128 net.cpp:124] Setting up conv3
I0315 05:39:10.432507  4128 net.cpp:131] Top shape: 100 64 8 8 (409600)
I0315 05:39:10.432509  4128 net.cpp:139] Memory required for data: 35226400
I0315 05:39:10.432519  4128 layer_factory.hpp:77] Creating layer relu3
I0315 05:39:10.432526  4128 net.cpp:86] Creating Layer relu3
I0315 05:39:10.432528  4128 net.cpp:408] relu3 <- conv3
I0315 05:39:10.432533  4128 net.cpp:369] relu3 -> conv3 (in-place)
I0315 05:39:10.432646  4128 net.cpp:124] Setting up relu3
I0315 05:39:10.432651  4128 net.cpp:131] Top shape: 100 64 8 8 (409600)
I0315 05:39:10.432653  4128 net.cpp:139] Memory required for data: 36864800
I0315 05:39:10.432656  4128 layer_factory.hpp:77] Creating layer pool3
I0315 05:39:10.432659  4128 net.cpp:86] Creating Layer pool3
I0315 05:39:10.432662  4128 net.cpp:408] pool3 <- conv3
I0315 05:39:10.432665  4128 net.cpp:382] pool3 -> pool3
I0315 05:39:10.433286  4128 net.cpp:124] Setting up pool3
I0315 05:39:10.433296  4128 net.cpp:131] Top shape: 100 64 4 4 (102400)
I0315 05:39:10.433298  4128 net.cpp:139] Memory required for data: 37274400
I0315 05:39:10.433300  4128 layer_factory.hpp:77] Creating layer ip1
I0315 05:39:10.433306  4128 net.cpp:86] Creating Layer ip1
I0315 05:39:10.433308  4128 net.cpp:408] ip1 <- pool3
I0315 05:39:10.433331  4128 net.cpp:382] ip1 -> ip1
I0315 05:39:10.434244  4128 net.cpp:124] Setting up ip1
I0315 05:39:10.434254  4128 net.cpp:131] Top shape: 100 10 (1000)
I0315 05:39:10.434257  4128 net.cpp:139] Memory required for data: 37278400
I0315 05:39:10.434262  4128 layer_factory.hpp:77] Creating layer loss
I0315 05:39:10.434269  4128 net.cpp:86] Creating Layer loss
I0315 05:39:10.434273  4128 net.cpp:408] loss <- ip1
I0315 05:39:10.434275  4128 net.cpp:408] loss <- label
I0315 05:39:10.434280  4128 net.cpp:382] loss -> loss
I0315 05:39:10.434290  4128 layer_factory.hpp:77] Creating layer loss
…
I0315 05:39:10.434815  4128 net.cpp:296] The NetState phase (1) differed from the phase (0) specified by a rule in layer concat_label
I0315 05:39:10.434818  4128 net.cpp:296] The NetState phase (1) differed from the phase (0) specified by a rule in layer concat_data
I0315 05:39:10.434902  4128 net.cpp:53] Initializing net from parameters: 
name: "CIFAR10_full"
state {
  phase: TEST
}
layer {
  name: "cifar"
  type: "Data"
  top: "data"
  top: "label"
  include {
    phase: TEST
  }
  transform_param {
    mean_file: "examples/cifar10/mean.binaryproto"
  }
  data_param {
    source: "examples/cifar10/cifar10_test_lmdb"
    batch_size: 10000
    backend: LMDB
  }
}
layer {
  name: "conv1"
  type: "Convolution"
  bottom: "data"
  top: "conv1"
  param {
    lr_mult: 1
  }
  param {
    lr_mult: 2
  }
  convolution_param {
    num_output: 32
    pad: 2
    kernel_size: 5
    stride: 1
    weight_filler {
      type: "gaussian"
      std: 0.0001
    }
    bias_filler {
      type: "constant"
    }
  }
}
layer {
  name: "pool1"
  type: "Pooling"
  bottom: "conv1"
  top: "pool1"
  pooling_param {
    pool: MAX
    kernel_size: 3
    stride: 2
  }
}
layer {
  name: "relu1"
  type: "ReLU"
  bottom: "pool1"
  top: "pool1"
}
layer {
  name: "norm1"
  type: "LRN"
  bottom: "pool1"
  top: "norm1"
  lrn_param {
    local_size: 3
    alpha: 5e-05
    beta: 0.75
    norm_region: WITHIN_CHANNEL
  }
}
layer {
  name: "conv2"
  type: "Convolution"
  bottom: "norm1"
  top: "conv2"
  param {
    lr_mult: 1
  }
  param {
    lr_mult: 2
  }
  convolution_param {
    num_output: 32
    pad: 2
    kernel_size: 5
    stride: 1
    weight_filler {
      type: "gaussian"
      std: 0.01
    }
    bias_filler {
      type: "constant"
    }
  }
}
layer {
  name: "relu2"
  type: "ReLU"
  bottom: "conv2"
  top: "conv2"
}
layer {
  name: "pool2"
  type: "Pooling"
  bottom: "conv2"
  top: "pool2"
  pooling_param {
    pool: AVE
    kernel_size: 3
    stride: 2
  }
}
layer {
  name: "norm2"
  type: "LRN"
  bottom: "pool2"
  top: "norm2"
  lrn_param {
    local_size: 3
    alpha: 5e-05
    beta: 0.75
    norm_region: WITHIN_CHANNEL
  }
}
layer {
  name: "conv3"
  type: "Convolution"
  bottom: "norm2"
  top: "conv3"
  convolution_param {
    num_output: 64
    pad: 2
    kernel_size: 5
    stride: 1
    weight_filler {
      type: "gaussian"
      std: 0.01
    }
    bias_filler {
      type: "constant"
    }
  }
}
layer {
  name: "relu3"
  type: "ReLU"
  bottom: "conv3"
  top: "conv3"
}
layer {
  name: "pool3"
  type: "Pooling"
  bottom: "conv3"
  top: "pool3"
  pooling_param {
    pool: AVE
    kernel_size: 3
    stride: 2
  }
}
layer {
  name: "ip1"
  type: "InnerProduct"
  bottom: "pool3"
  top: "ip1"
  param {
    lr_mult: 1
    decay_mult: 250
  }
  param {
    lr_mult: 2
    decay_mult: 0
  }
  inner_product_param {
    num_output: 10
    weight_filler {
      type: "gaussian"
      std: 0.01
    }
    bias_filler {
      type: "constant"
    }
  }
}
layer {
  name: "accuracy"
  type: "Python"
  bottom: "ip1"
  bottom: "label"
  top: "accuracy"
  include {
    phase: TEST
  }
  python_param {
    module: "cifar10_base"
    layer: "Accuracy"
  }
}
layer {
  name: "loss"
  type: "SoftmaxWithLoss"
  bottom: "ip1"
  bottom: "label"
  top: "loss"
}
I0315 05:39:10.434969  4128 layer_factory.hpp:77] Creating layer cifar
I0315 05:39:10.435019  4128 db_lmdb.cpp:35] Opened lmdb examples/cifar10/cifar10_test_lmdb
I0315 05:39:10.435039  4128 net.cpp:86] Creating Layer cifar
I0315 05:39:10.435044  4128 net.cpp:382] cifar -> data
I0315 05:39:10.435050  4128 net.cpp:382] cifar -> label
I0315 05:39:10.435056  4128 data_transformer.cpp:25] Loading mean file from: examples/cifar10/mean.binaryproto
I0315 05:39:10.435175  4128 data_layer.cpp:45] output data size: 10000,3,32,32
I0315 05:39:10.684134  4128 net.cpp:124] Setting up cifar
I0315 05:39:10.684156  4128 net.cpp:131] Top shape: 10000 3 32 32 (30720000)
I0315 05:39:10.684161  4128 net.cpp:131] Top shape: 10000 (10000)
I0315 05:39:10.684164  4128 net.cpp:139] Memory required for data: 122920000
I0315 05:39:10.684168  4128 layer_factory.hpp:77] Creating layer label_cifar_1_split
I0315 05:39:10.684180  4128 net.cpp:86] Creating Layer label_cifar_1_split
I0315 05:39:10.684182  4128 net.cpp:408] label_cifar_1_split <- label
I0315 05:39:10.684188  4128 net.cpp:382] label_cifar_1_split -> label_cifar_1_split_0
I0315 05:39:10.684196  4128 net.cpp:382] label_cifar_1_split -> label_cifar_1_split_1
I0315 05:39:10.684288  4128 net.cpp:124] Setting up label_cifar_1_split
I0315 05:39:10.684293  4128 net.cpp:131] Top shape: 10000 (10000)
I0315 05:39:10.684294  4128 net.cpp:131] Top shape: 10000 (10000)
I0315 05:39:10.684296  4128 net.cpp:139] Memory required for data: 123000000
I0315 05:39:10.684298  4128 layer_factory.hpp:77] Creating layer conv1
I0315 05:39:10.684310  4128 net.cpp:86] Creating Layer conv1
I0315 05:39:10.684314  4128 net.cpp:408] conv1 <- data
I0315 05:39:10.684316  4128 net.cpp:382] conv1 -> conv1
I0315 05:39:10.709990  4128 net.cpp:124] Setting up conv1
I0315 05:39:10.710017  4128 net.cpp:131] Top shape: 10000 32 32 32 (327680000)
I0315 05:39:10.710019  4128 net.cpp:139] Memory required for data: 1433720000
I0315 05:39:10.710034  4128 layer_factory.hpp:77] Creating layer pool1
I0315 05:39:10.710044  4128 net.cpp:86] Creating Layer pool1
I0315 05:39:10.710047  4128 net.cpp:408] pool1 <- conv1
I0315 05:39:10.710052  4128 net.cpp:382] pool1 -> pool1
I0315 05:39:10.710108  4128 net.cpp:124] Setting up pool1
I0315 05:39:10.710113  4128 net.cpp:131] Top shape: 10000 32 16 16 (81920000)
I0315 05:39:10.710115  4128 net.cpp:139] Memory required for data: 1761400000
I0315 05:39:10.710117  4128 layer_factory.hpp:77] Creating layer relu1
I0315 05:39:10.710122  4128 net.cpp:86] Creating Layer relu1
I0315 05:39:10.710125  4128 net.cpp:408] relu1 <- pool1
I0315 05:39:10.710129  4128 net.cpp:369] relu1 -> pool1 (in-place)
I0315 05:39:10.710942  4128 net.cpp:124] Setting up relu1
I0315 05:39:10.710958  4128 net.cpp:131] Top shape: 10000 32 16 16 (81920000)
I0315 05:39:10.710960  4128 net.cpp:139] Memory required for data: 2089080000
I0315 05:39:10.710963  4128 layer_factory.hpp:77] Creating layer norm1
I0315 05:39:10.710973  4128 net.cpp:86] Creating Layer norm1
I0315 05:39:10.710976  4128 net.cpp:408] norm1 <- pool1
I0315 05:39:10.710981  4128 net.cpp:382] norm1 -> norm1
I0315 05:39:10.712628  4128 net.cpp:124] Setting up norm1
I0315 05:39:10.712651  4128 net.cpp:131] Top shape: 10000 32 16 16 (81920000)
I0315 05:39:10.712652  4128 net.cpp:139] Memory required for data: 2416760000
I0315 05:39:10.712657  4128 layer_factory.hpp:77] Creating layer conv2
I0315 05:39:10.712671  4128 net.cpp:86] Creating Layer conv2
I0315 05:39:10.712674  4128 net.cpp:408] conv2 <- norm1
I0315 05:39:10.712682  4128 net.cpp:382] conv2 -> conv2
I0315 05:39:10.715602  4128 net.cpp:124] Setting up conv2
I0315 05:39:10.715628  4128 net.cpp:131] Top shape: 10000 32 16 16 (81920000)
I0315 05:39:10.715631  4128 net.cpp:139] Memory required for data: 2744440000
I0315 05:39:10.715646  4128 layer_factory.hpp:77] Creating layer relu2
I0315 05:39:10.715654  4128 net.cpp:86] Creating Layer relu2
I0315 05:39:10.715658  4128 net.cpp:408] relu2 <- conv2
I0315 05:39:10.715662  4128 net.cpp:369] relu2 -> conv2 (in-place)
I0315 05:39:10.716464  4128 net.cpp:124] Setting up relu2
I0315 05:39:10.716483  4128 net.cpp:131] Top shape: 10000 32 16 16 (81920000)
I0315 05:39:10.716485  4128 net.cpp:139] Memory required for data: 3072120000
I0315 05:39:10.716490  4128 layer_factory.hpp:77] Creating layer pool2
I0315 05:39:10.716500  4128 net.cpp:86] Creating Layer pool2
I0315 05:39:10.716503  4128 net.cpp:408] pool2 <- conv2
I0315 05:39:10.716511  4128 net.cpp:382] pool2 -> pool2
I0315 05:39:10.716658  4128 net.cpp:124] Setting up pool2
I0315 05:39:10.716667  4128 net.cpp:131] Top shape: 10000 32 8 8 (20480000)
I0315 05:39:10.716670  4128 net.cpp:139] Memory required for data: 3154040000
I0315 05:39:10.716672  4128 layer_factory.hpp:77] Creating layer norm2
I0315 05:39:10.716678  4128 net.cpp:86] Creating Layer norm2
I0315 05:39:10.716681  4128 net.cpp:408] norm2 <- pool2
I0315 05:39:10.716686  4128 net.cpp:382] norm2 -> norm2
I0315 05:39:10.717861  4128 net.cpp:124] Setting up norm2
I0315 05:39:10.717875  4128 net.cpp:131] Top shape: 10000 32 8 8 (20480000)
I0315 05:39:10.717878  4128 net.cpp:139] Memory required for data: 3235960000
I0315 05:39:10.717880  4128 layer_factory.hpp:77] Creating layer conv3
I0315 05:39:10.717891  4128 net.cpp:86] Creating Layer conv3
I0315 05:39:10.717893  4128 net.cpp:408] conv3 <- norm2
I0315 05:39:10.717898  4128 net.cpp:382] conv3 -> conv3
I0315 05:39:10.719517  4128 net.cpp:124] Setting up conv3
I0315 05:39:10.719538  4128 net.cpp:131] Top shape: 10000 64 8 8 (40960000)
I0315 05:39:10.719540  4128 net.cpp:139] Memory required for data: 3399800000
I0315 05:39:10.719550  4128 layer_factory.hpp:77] Creating layer relu3
I0315 05:39:10.719558  4128 net.cpp:86] Creating Layer relu3
I0315 05:39:10.719561  4128 net.cpp:408] relu3 <- conv3
I0315 05:39:10.719566  4128 net.cpp:369] relu3 -> conv3 (in-place)
I0315 05:39:10.719687  4128 net.cpp:124] Setting up relu3
I0315 05:39:10.719693  4128 net.cpp:131] Top shape: 10000 64 8 8 (40960000)
I0315 05:39:10.719696  4128 net.cpp:139] Memory required for data: 3563640000
I0315 05:39:10.719698  4128 layer_factory.hpp:77] Creating layer pool3
I0315 05:39:10.719704  4128 net.cpp:86] Creating Layer pool3
I0315 05:39:10.719707  4128 net.cpp:408] pool3 <- conv3
I0315 05:39:10.719725  4128 net.cpp:382] pool3 -> pool3
I0315 05:39:10.720365  4128 net.cpp:124] Setting up pool3
I0315 05:39:10.720374  4128 net.cpp:131] Top shape: 10000 64 4 4 (10240000)
I0315 05:39:10.720376  4128 net.cpp:139] Memory required for data: 3604600000
I0315 05:39:10.720379  4128 layer_factory.hpp:77] Creating layer ip1
I0315 05:39:10.720386  4128 net.cpp:86] Creating Layer ip1
I0315 05:39:10.720388  4128 net.cpp:408] ip1 <- pool3
I0315 05:39:10.720392  4128 net.cpp:382] ip1 -> ip1
I0315 05:39:10.720571  4128 net.cpp:124] Setting up ip1
I0315 05:39:10.720576  4128 net.cpp:131] Top shape: 10000 10 (100000)
I0315 05:39:10.720577  4128 net.cpp:139] Memory required for data: 3605000000
I0315 05:39:10.720582  4128 layer_factory.hpp:77] Creating layer ip1_ip1_0_split
I0315 05:39:10.720588  4128 net.cpp:86] Creating Layer ip1_ip1_0_split
I0315 05:39:10.720592  4128 net.cpp:408] ip1_ip1_0_split <- ip1
I0315 05:39:10.720594  4128 net.cpp:382] ip1_ip1_0_split -> ip1_ip1_0_split_0
I0315 05:39:10.720599  4128 net.cpp:382] ip1_ip1_0_split -> ip1_ip1_0_split_1
I0315 05:39:10.720624  4128 net.cpp:124] Setting up ip1_ip1_0_split
I0315 05:39:10.720628  4128 net.cpp:131] Top shape: 10000 10 (100000)
I0315 05:39:10.720630  4128 net.cpp:131] Top shape: 10000 10 (100000)
I0315 05:39:10.720633  4128 net.cpp:139] Memory required for data: 3605800000
I0315 05:39:10.720634  4128 layer_factory.hpp:77] Creating layer accuracy
I0315 05:39:10.780580  4178 data_layer.cpp:73] Restarting data prefetching from start.
I0315 05:39:10.890380  4178 data_layer.cpp:73] Restarting data prefetching from start.
I0315 05:39:11.003350  4178 data_layer.cpp:73] Restarting data prefetching from start.
I0315 05:39:11.108157  4178 data_layer.cpp:73] Restarting data prefetching from start.
I0315 05:39:11.565763  4128 net.cpp:86] Creating Layer accuracy
I0315 05:39:11.565785  4128 net.cpp:408] accuracy <- ip1_ip1_0_split_0
I0315 05:39:11.565793  4128 net.cpp:408] accuracy <- label_cifar_1_split_0
I0315 05:39:11.565798  4128 net.cpp:382] accuracy -> accuracy
I0315 05:39:11.566823  4128 net.cpp:124] Setting up accuracy
I0315 05:39:11.566839  4128 net.cpp:131] Top shape: 1 (1)
I0315 05:39:11.566841  4128 net.cpp:139] Memory required for data: 3605800004
I0315 05:39:11.566845  4128 layer_factory.hpp:77] Creating layer loss
I0315 05:39:11.566855  4128 net.cpp:86] Creating Layer loss
I0315 05:39:11.566859  4128 net.cpp:408] loss <- ip1_ip1_0_split_1
I0315 05:39:11.566865  4128 net.cpp:408] loss <- label_cifar_1_split_1
I0315 05:39:11.566871  4128 net.cpp:382] loss -> loss
…
