…
layer {
  name: "cifar1"
  type: "Data"
  top: "data_fixed"
  top: "label_fixed"
  include {
    phase: TRAIN
  }
  transform_param {
    mean_file: "examples/cifar10/mean.binaryproto"
  }
  data_param {
    source: "examples/cifar10/cifar10_train_20000"
    batch_size: 80
    backend: LMDB
  }
}
layer {
  name: "cifar2"
  type: "Python"
  top: "data_hard"
  top: "label_hard"
  include {
    phase: TRAIN
  }
  transform_param {
    mean_file: "examples/cifar10/mean.binaryproto"
  }
  python_param {
    module: "cifar_mine"
    layer: "Data_hard"
  }
}
layer {
  name: "concat_label"
  type: "Concat"
  bottom: "label_fixed"
  bottom: "label_hard"
  top: "label"
  include {
    phase: TRAIN
  }
  concat_param {
    concat_dim: 0
  }
}
layer {
  name: "concat_data"
  type: "Concat"
  bottom: "data_fixed"
  bottom: "data_hard"
  top: "data"
  include {
    phase: TRAIN
  }
  concat_param {
    concat_dim: 0
  }
}
layer {
  name: "conv1"
  type: "Convolution"
  bottom: "data"
  top: "conv1"
  param {
    lr_mult: 1
  }
  param {
    lr_mult: 2
  }
  convolution_param {
    num_output: 32
    pad: 2
    kernel_size: 5
    stride: 1
    weight_filler {
      type: "gaussian"
      std: 0.0001
    }
    bias_filler {
      type: "constant"
    }
  }
}
layer {
  name: "pool1"
  type: "Pooling"
  bottom: "conv1"
  top: "pool1"
  pooling_param {
    pool: MAX
    kernel_size: 3
    stride: 2
  }
}
layer {
  name: "relu1"
  type: "ReLU"
  bottom: "pool1"
  top: "pool1"
}
layer {
  name: "norm1"
  type: "LRN"
  bottom: "pool1"
  top: "norm1"
  lrn_param {
    local_size: 3
    alpha: 5e-05
    beta: 0.75
    norm_region: WITHIN_CHANNEL
  }
}
layer {
  name: "conv2"
  type: "Convolution"
  bottom: "norm1"
  top: "conv2"
  param {
    lr_mult: 1
  }
  param {
    lr_mult: 2
  }
  convolution_param {
    num_output: 32
    pad: 2
    kernel_size: 5
    stride: 1
    weight_filler {
      type: "gaussian"
      std: 0.01
    }
    bias_filler {
      type: "constant"
    }
  }
}
layer {
  name: "relu2"
  type: "ReLU"
  bottom: "conv2"
  top: "conv2"
}
layer {
  name: "pool2"
  type: "Pooling"
  bottom: "conv2"
  top: "pool2"
  pooling_param {
    pool: AVE
    kernel_size: 3
    stride: 2
  }
}
layer {
  name: "norm2"
  type: "LRN"
  bottom: "pool2"
  top: "norm2"
  lrn_param {
    local_size: 3
    alpha: 5e-05
    beta: 0.75
    norm_region: WITHIN_CHANNEL
  }
}
layer {
  name: "conv3"
  type: "Convolution"
  bottom: "norm2"
  top: "conv3"
  convolution_param {
    num_output: 64
    pad: 2
    kernel_size: 5
    stride: 1
    weight_filler {
      type: "gaussian"
      std: 0.01
    }
    bias_filler {
      type: "constant"
    }
  }
}
layer {
  name: "relu3"
  type: "ReLU"
  bottom: "conv3"
  top: "conv3"
}
layer {
  name: "pool3"
  type: "Pooling"
  bottom: "conv3"
  top: "pool3"
  pooling_param {
    pool: AVE
    kernel_size: 3
    stride: 2
  }
}
layer {
  name: "ip1"
  type: "InnerProduct"
  bottom: "pool3"
  top: "ip1"
  param {
    lr_mult: 1
    decay_mult: 250
  }
  param {
    lr_mult: 2
    decay_mult: 0
  }
  inner_product_param {
    num_output: 10
    weight_filler {
      type: "gaussian"
      std: 0.01
    }
    bias_filler {
      type: "constant"
    }
  }
}
layer {
  name: "loss"
  type: "SoftmaxWithLoss"
  bottom: "ip1"
  bottom: "label"
  top: "loss"
}
I0315 05:25:08.761291 11255 layer_factory.hpp:77] Creating layer cifar1
I0315 05:25:08.761873 11255 db_lmdb.cpp:35] Opened lmdb examples/cifar10/cifar10_train_20000
I0315 05:25:08.762285 11255 net.cpp:86] Creating Layer cifar1
I0315 05:25:08.762296 11255 net.cpp:382] cifar1 -> data_fixed
I0315 05:25:08.762313 11255 net.cpp:382] cifar1 -> label_fixed
I0315 05:25:08.762321 11255 data_transformer.cpp:25] Loading mean file from: examples/cifar10/mean.binaryproto
I0315 05:25:08.764057 11255 data_layer.cpp:45] output data size: 80,3,32,32
I0315 05:25:08.768318 11255 net.cpp:124] Setting up cifar1
I0315 05:25:08.768337 11255 net.cpp:131] Top shape: 80 3 32 32 (245760)
I0315 05:25:08.768340 11255 net.cpp:131] Top shape: 80 (80)
I0315 05:25:08.768342 11255 net.cpp:139] Memory required for data: 983360
I0315 05:25:08.768349 11255 layer_factory.hpp:77] Creating layer cifar2
I0315 05:25:09.592885 11255 net.cpp:86] Creating Layer cifar2
I0315 05:25:09.592905 11255 net.cpp:382] cifar2 -> data_hard
I0315 05:25:09.592914 11255 net.cpp:382] cifar2 -> label_hard
iter 36000
I0315 05:25:09.593035 11255 net.cpp:124] Setting up cifar2
I0315 05:25:09.593045 11255 net.cpp:131] Top shape: 20 3 32 32 (61440)
I0315 05:25:09.593050 11255 net.cpp:131] Top shape: 20 (20)
I0315 05:25:09.593051 11255 net.cpp:139] Memory required for data: 1229200
I0315 05:25:09.593055 11255 layer_factory.hpp:77] Creating layer concat_label
I0315 05:25:09.593060 11255 net.cpp:86] Creating Layer concat_label
I0315 05:25:09.593065 11255 net.cpp:408] concat_label <- label_fixed
I0315 05:25:09.593075 11255 net.cpp:408] concat_label <- label_hard
I0315 05:25:09.593080 11255 net.cpp:382] concat_label -> label
I0315 05:25:09.593103 11255 net.cpp:124] Setting up concat_label
I0315 05:25:09.593108 11255 net.cpp:131] Top shape: 100 (100)
I0315 05:25:09.593111 11255 net.cpp:139] Memory required for data: 1229600
I0315 05:25:09.593112 11255 layer_factory.hpp:77] Creating layer concat_data
I0315 05:25:09.593116 11255 net.cpp:86] Creating Layer concat_data
I0315 05:25:09.593118 11255 net.cpp:408] concat_data <- data_fixed
I0315 05:25:09.593122 11255 net.cpp:408] concat_data <- data_hard
I0315 05:25:09.593125 11255 net.cpp:382] concat_data -> data
I0315 05:25:09.593139 11255 net.cpp:124] Setting up concat_data
I0315 05:25:09.593144 11255 net.cpp:131] Top shape: 100 3 32 32 (307200)
I0315 05:25:09.593147 11255 net.cpp:139] Memory required for data: 2458400
I0315 05:25:09.593148 11255 layer_factory.hpp:77] Creating layer conv1
I0315 05:25:09.593160 11255 net.cpp:86] Creating Layer conv1
I0315 05:25:09.593163 11255 net.cpp:408] conv1 <- data
I0315 05:25:09.593168 11255 net.cpp:382] conv1 -> conv1
I0315 05:25:10.132565 11255 net.cpp:124] Setting up conv1
I0315 05:25:10.132587 11255 net.cpp:131] Top shape: 100 32 32 32 (3276800)
I0315 05:25:10.132591 11255 net.cpp:139] Memory required for data: 15565600
I0315 05:25:10.132609 11255 layer_factory.hpp:77] Creating layer pool1
I0315 05:25:10.132624 11255 net.cpp:86] Creating Layer pool1
I0315 05:25:10.132627 11255 net.cpp:408] pool1 <- conv1
I0315 05:25:10.132632 11255 net.cpp:382] pool1 -> pool1
I0315 05:25:10.132673 11255 net.cpp:124] Setting up pool1
I0315 05:25:10.132678 11255 net.cpp:131] Top shape: 100 32 16 16 (819200)
I0315 05:25:10.132680 11255 net.cpp:139] Memory required for data: 18842400
I0315 05:25:10.132683 11255 layer_factory.hpp:77] Creating layer relu1
I0315 05:25:10.132686 11255 net.cpp:86] Creating Layer relu1
I0315 05:25:10.132704 11255 net.cpp:408] relu1 <- pool1
I0315 05:25:10.132707 11255 net.cpp:369] relu1 -> pool1 (in-place)
I0315 05:25:10.132838 11255 net.cpp:124] Setting up relu1
I0315 05:25:10.132844 11255 net.cpp:131] Top shape: 100 32 16 16 (819200)
I0315 05:25:10.132848 11255 net.cpp:139] Memory required for data: 22119200
I0315 05:25:10.132850 11255 layer_factory.hpp:77] Creating layer norm1
I0315 05:25:10.132858 11255 net.cpp:86] Creating Layer norm1
I0315 05:25:10.132861 11255 net.cpp:408] norm1 <- pool1
I0315 05:25:10.132865 11255 net.cpp:382] norm1 -> norm1
I0315 05:25:10.134454 11255 net.cpp:124] Setting up norm1
I0315 05:25:10.134464 11255 net.cpp:131] Top shape: 100 32 16 16 (819200)
I0315 05:25:10.134466 11255 net.cpp:139] Memory required for data: 25396000
I0315 05:25:10.134469 11255 layer_factory.hpp:77] Creating layer conv2
I0315 05:25:10.134481 11255 net.cpp:86] Creating Layer conv2
I0315 05:25:10.134485 11255 net.cpp:408] conv2 <- norm1
I0315 05:25:10.134488 11255 net.cpp:382] conv2 -> conv2
I0315 05:25:10.136416 11255 net.cpp:124] Setting up conv2
I0315 05:25:10.136426 11255 net.cpp:131] Top shape: 100 32 16 16 (819200)
I0315 05:25:10.136428 11255 net.cpp:139] Memory required for data: 28672800
I0315 05:25:10.136436 11255 layer_factory.hpp:77] Creating layer relu2
I0315 05:25:10.136440 11255 net.cpp:86] Creating Layer relu2
I0315 05:25:10.136443 11255 net.cpp:408] relu2 <- conv2
I0315 05:25:10.136446 11255 net.cpp:369] relu2 -> conv2 (in-place)
I0315 05:25:10.137034 11255 net.cpp:124] Setting up relu2
I0315 05:25:10.137043 11255 net.cpp:131] Top shape: 100 32 16 16 (819200)
I0315 05:25:10.137063 11255 net.cpp:139] Memory required for data: 31949600
I0315 05:25:10.137065 11255 layer_factory.hpp:77] Creating layer pool2
I0315 05:25:10.137070 11255 net.cpp:86] Creating Layer pool2
I0315 05:25:10.137073 11255 net.cpp:408] pool2 <- conv2
I0315 05:25:10.137076 11255 net.cpp:382] pool2 -> pool2
I0315 05:25:10.137199 11255 net.cpp:124] Setting up pool2
I0315 05:25:10.137207 11255 net.cpp:131] Top shape: 100 32 8 8 (204800)
I0315 05:25:10.137210 11255 net.cpp:139] Memory required for data: 32768800
I0315 05:25:10.137212 11255 layer_factory.hpp:77] Creating layer norm2
I0315 05:25:10.137217 11255 net.cpp:86] Creating Layer norm2
I0315 05:25:10.137220 11255 net.cpp:408] norm2 <- pool2
I0315 05:25:10.137224 11255 net.cpp:382] norm2 -> norm2
I0315 05:25:10.137403 11255 net.cpp:124] Setting up norm2
I0315 05:25:10.137408 11255 net.cpp:131] Top shape: 100 32 8 8 (204800)
I0315 05:25:10.137410 11255 net.cpp:139] Memory required for data: 33588000
I0315 05:25:10.137413 11255 layer_factory.hpp:77] Creating layer conv3
I0315 05:25:10.137419 11255 net.cpp:86] Creating Layer conv3
I0315 05:25:10.137423 11255 net.cpp:408] conv3 <- norm2
I0315 05:25:10.137426 11255 net.cpp:382] conv3 -> conv3
I0315 05:25:10.138795 11255 net.cpp:124] Setting up conv3
I0315 05:25:10.138805 11255 net.cpp:131] Top shape: 100 64 8 8 (409600)
I0315 05:25:10.138808 11255 net.cpp:139] Memory required for data: 35226400
I0315 05:25:10.138815 11255 layer_factory.hpp:77] Creating layer relu3
I0315 05:25:10.138820 11255 net.cpp:86] Creating Layer relu3
I0315 05:25:10.138823 11255 net.cpp:408] relu3 <- conv3
I0315 05:25:10.138826 11255 net.cpp:369] relu3 -> conv3 (in-place)
I0315 05:25:10.138942 11255 net.cpp:124] Setting up relu3
I0315 05:25:10.138948 11255 net.cpp:131] Top shape: 100 64 8 8 (409600)
I0315 05:25:10.138949 11255 net.cpp:139] Memory required for data: 36864800
I0315 05:25:10.138952 11255 layer_factory.hpp:77] Creating layer pool3
I0315 05:25:10.138957 11255 net.cpp:86] Creating Layer pool3
I0315 05:25:10.138959 11255 net.cpp:408] pool3 <- conv3
I0315 05:25:10.138962 11255 net.cpp:382] pool3 -> pool3
I0315 05:25:10.139557 11255 net.cpp:124] Setting up pool3
I0315 05:25:10.139566 11255 net.cpp:131] Top shape: 100 64 4 4 (102400)
I0315 05:25:10.139569 11255 net.cpp:139] Memory required for data: 37274400
I0315 05:25:10.139572 11255 layer_factory.hpp:77] Creating layer ip1
I0315 05:25:10.139578 11255 net.cpp:86] Creating Layer ip1
I0315 05:25:10.139593 11255 net.cpp:408] ip1 <- pool3
I0315 05:25:10.139598 11255 net.cpp:382] ip1 -> ip1
I0315 05:25:10.140497 11255 net.cpp:124] Setting up ip1
I0315 05:25:10.140506 11255 net.cpp:131] Top shape: 100 10 (1000)
I0315 05:25:10.140507 11255 net.cpp:139] Memory required for data: 37278400
I0315 05:25:10.140512 11255 layer_factory.hpp:77] Creating layer loss
I0315 05:25:10.140519 11255 net.cpp:86] Creating Layer loss
I0315 05:25:10.140522 11255 net.cpp:408] loss <- ip1
I0315 05:25:10.140527 11255 net.cpp:408] loss <- label
I0315 05:25:10.140532 11255 net.cpp:382] loss -> loss
I0315 05:25:10.140542 11255 layer_factory.hpp:77] Creating layer loss
…
  top: "data_test"
  top: "label_test"
  include {
    phase: TEST
  }
  transform_param {
    mean_file: "examples/cifar10/mean.binaryproto"
  }
  data_param {
    source: "examples/cifar10/cifar10_test_lmdb"
    batch_size: 10000
    backend: LMDB
  }
}
layer {
  name: "cifar2"
  type: "Data"
  top: "data_guide"
  top: "label_guide"
  include {
    phase: TEST
  }
  transform_param {
    mean_file: "examples/cifar10/mean.binaryproto"
  }
  data_param {
    source: "examples/cifar10/cifar10_guidance_5000"
    batch_size: 5000
    backend: LMDB
  }
}
layer {
  name: "concat_label"
  type: "Concat"
  bottom: "label_test"
  bottom: "label_guide"
  top: "label"
  include {
    phase: TEST
  }
  concat_param {
    concat_dim: 0
  }
}
layer {
  name: "concat_data"
  type: "Concat"
  bottom: "data_test"
  bottom: "data_guide"
  top: "data"
  include {
    phase: TEST
  }
  concat_param {
    concat_dim: 0
  }
}
layer {
  name: "conv1"
  type: "Convolution"
  bottom: "data"
  top: "conv1"
  param {
    lr_mult: 1
  }
  param {
    lr_mult: 2
  }
  convolution_param {
    num_output: 32
    pad: 2
    kernel_size: 5
    stride: 1
    weight_filler {
      type: "gaussian"
      std: 0.0001
    }
    bias_filler {
      type: "constant"
    }
  }
}
layer {
  name: "pool1"
  type: "Pooling"
  bottom: "conv1"
  top: "pool1"
  pooling_param {
    pool: MAX
    kernel_size: 3
    stride: 2
  }
}
layer {
  name: "relu1"
  type: "ReLU"
  bottom: "pool1"
  top: "pool1"
}
layer {
  name: "norm1"
  type: "LRN"
  bottom: "pool1"
  top: "norm1"
  lrn_param {
    local_size: 3
    alpha: 5e-05
    beta: 0.75
    norm_region: WITHIN_CHANNEL
  }
}
layer {
  name: "conv2"
  type: "Convolution"
  bottom: "norm1"
  top: "conv2"
  param {
    lr_mult: 1
  }
  param {
    lr_mult: 2
  }
  convolution_param {
    num_output: 32
    pad: 2
    kernel_size: 5
    stride: 1
    weight_filler {
      type: "gaussian"
      std: 0.01
    }
    bias_filler {
      type: "constant"
    }
  }
}
layer {
  name: "relu2"
  type: "ReLU"
  bottom: "conv2"
  top: "conv2"
}
layer {
  name: "pool2"
  type: "Pooling"
  bottom: "conv2"
  top: "pool2"
  pooling_param {
    pool: AVE
    kernel_size: 3
    stride: 2
  }
}
layer {
  name: "norm2"
  type: "LRN"
  bottom: "pool2"
  top: "norm2"
  lrn_param {
    local_size: 3
    alpha: 5e-05
    beta: 0.75
    norm_region: WITHIN_CHANNEL
  }
}
layer {
  name: "conv3"
  type: "Convolution"
  bottom: "norm2"
  top: "conv3"
  convolution_param {
    num_output: 64
    pad: 2
    kernel_size: 5
    stride: 1
    weight_filler {
      type: "gaussian"
      std: 0.01
    }
    bias_filler {
      type: "constant"
    }
  }
}
layer {
  name: "relu3"
  type: "ReLU"
  bottom: "conv3"
  top: "conv3"
}
layer {
  name: "pool3"
  type: "Pooling"
  bottom: "conv3"
  top: "pool3"
  pooling_param {
    pool: AVE
    kernel_size: 3
    stride: 2
  }
}
layer {
  name: "ip1"
  type: "InnerProduct"
  bottom: "pool3"
  top: "ip1"
  param {
    lr_mult: 1
    decay_mult: 250
  }
  param {
    lr_mult: 2
    decay_mult: 0
  }
  inner_product_param {
    num_output: 10
    weight_filler {
      type: "gaussian"
      std: 0.01
    }
    bias_filler {
      type: "constant"
    }
  }
}
layer {
  name: "accuracy"
  type: "Python"
  bottom: "ip1"
  bottom: "label"
  top: "accuracy"
  include {
    phase: TEST
  }
  python_param {
    module: "cifar_mine"
    layer: "Accuracy"
  }
}
layer {
  name: "loss"
  type: "SoftmaxWithLoss"
  bottom: "ip1"
  bottom: "label"
  top: "loss"
}
I0315 05:25:10.141223 11255 layer_factory.hpp:77] Creating layer cifar1
I0315 05:25:10.141556 11255 db_lmdb.cpp:35] Opened lmdb examples/cifar10/cifar10_test_lmdb
I0315 05:25:10.141988 11255 net.cpp:86] Creating Layer cifar1
I0315 05:25:10.141993 11255 net.cpp:382] cifar1 -> data_test
I0315 05:25:10.141999 11255 net.cpp:382] cifar1 -> label_test
I0315 05:25:10.142006 11255 data_transformer.cpp:25] Loading mean file from: examples/cifar10/mean.binaryproto
I0315 05:25:10.142122 11255 data_layer.cpp:45] output data size: 10000,3,32,32
I0315 05:25:10.465138 11255 net.cpp:124] Setting up cifar1
I0315 05:25:10.465158 11255 net.cpp:131] Top shape: 10000 3 32 32 (30720000)
I0315 05:25:10.465162 11255 net.cpp:131] Top shape: 10000 (10000)
I0315 05:25:10.465164 11255 net.cpp:139] Memory required for data: 122920000
I0315 05:25:10.465169 11255 layer_factory.hpp:77] Creating layer cifar2
I0315 05:25:10.465587 11255 db_lmdb.cpp:35] Opened lmdb examples/cifar10/cifar10_guidance_5000
I0315 05:25:10.465997 11255 net.cpp:86] Creating Layer cifar2
I0315 05:25:10.466004 11255 net.cpp:382] cifar2 -> data_guide
I0315 05:25:10.466013 11255 net.cpp:382] cifar2 -> label_guide
I0315 05:25:10.466019 11255 data_transformer.cpp:25] Loading mean file from: examples/cifar10/mean.binaryproto
I0315 05:25:10.466147 11255 data_layer.cpp:45] output data size: 5000,3,32,32
I0315 05:25:10.642366 11338 data_layer.cpp:73] Restarting data prefetching from start.
I0315 05:25:10.681072 11255 net.cpp:124] Setting up cifar2
I0315 05:25:10.681119 11255 net.cpp:131] Top shape: 5000 3 32 32 (15360000)
I0315 05:25:10.681123 11255 net.cpp:131] Top shape: 5000 (5000)
I0315 05:25:10.681125 11255 net.cpp:139] Memory required for data: 184380000
I0315 05:25:10.681129 11255 layer_factory.hpp:77] Creating layer concat_label
I0315 05:25:10.681141 11255 net.cpp:86] Creating Layer concat_label
I0315 05:25:10.681144 11255 net.cpp:408] concat_label <- label_test
I0315 05:25:10.681149 11255 net.cpp:408] concat_label <- label_guide
I0315 05:25:10.681152 11255 net.cpp:382] concat_label -> label
I0315 05:25:10.681208 11255 net.cpp:124] Setting up concat_label
I0315 05:25:10.681215 11255 net.cpp:131] Top shape: 15000 (15000)
I0315 05:25:10.681216 11255 net.cpp:139] Memory required for data: 184440000
I0315 05:25:10.681218 11255 layer_factory.hpp:77] Creating layer label_concat_label_0_split
I0315 05:25:10.681223 11255 net.cpp:86] Creating Layer label_concat_label_0_split
I0315 05:25:10.681226 11255 net.cpp:408] label_concat_label_0_split <- label
I0315 05:25:10.681229 11255 net.cpp:382] label_concat_label_0_split -> label_concat_label_0_split_0
I0315 05:25:10.681233 11255 net.cpp:382] label_concat_label_0_split -> label_concat_label_0_split_1
I0315 05:25:10.681259 11255 net.cpp:124] Setting up label_concat_label_0_split
I0315 05:25:10.681264 11255 net.cpp:131] Top shape: 15000 (15000)
I0315 05:25:10.681267 11255 net.cpp:131] Top shape: 15000 (15000)
I0315 05:25:10.681268 11255 net.cpp:139] Memory required for data: 184560000
I0315 05:25:10.681270 11255 layer_factory.hpp:77] Creating layer concat_data
I0315 05:25:10.681275 11255 net.cpp:86] Creating Layer concat_data
I0315 05:25:10.681277 11255 net.cpp:408] concat_data <- data_test
I0315 05:25:10.681279 11255 net.cpp:408] concat_data <- data_guide
I0315 05:25:10.681282 11255 net.cpp:382] concat_data -> data
I0315 05:25:10.681300 11255 net.cpp:124] Setting up concat_data
I0315 05:25:10.681305 11255 net.cpp:131] Top shape: 15000 3 32 32 (46080000)
I0315 05:25:10.681308 11255 net.cpp:139] Memory required for data: 368880000
I0315 05:25:10.681309 11255 layer_factory.hpp:77] Creating layer conv1
I0315 05:25:10.681318 11255 net.cpp:86] Creating Layer conv1
I0315 05:25:10.681321 11255 net.cpp:408] conv1 <- data
I0315 05:25:10.681324 11255 net.cpp:382] conv1 -> conv1
I0315 05:25:10.707083 11255 net.cpp:124] Setting up conv1
I0315 05:25:10.707108 11255 net.cpp:131] Top shape: 15000 32 32 32 (491520000)
I0315 05:25:10.707113 11255 net.cpp:139] Memory required for data: 2334960000
I0315 05:25:10.707129 11255 layer_factory.hpp:77] Creating layer pool1
I0315 05:25:10.707139 11255 net.cpp:86] Creating Layer pool1
I0315 05:25:10.707144 11255 net.cpp:408] pool1 <- conv1
I0315 05:25:10.707151 11255 net.cpp:382] pool1 -> pool1
I0315 05:25:10.707201 11255 net.cpp:124] Setting up pool1
I0315 05:25:10.707209 11255 net.cpp:131] Top shape: 15000 32 16 16 (122880000)
I0315 05:25:10.707214 11255 net.cpp:139] Memory required for data: 2826480000
I0315 05:25:10.707217 11255 layer_factory.hpp:77] Creating layer relu1
I0315 05:25:10.707223 11255 net.cpp:86] Creating Layer relu1
I0315 05:25:10.707227 11255 net.cpp:408] relu1 <- pool1
I0315 05:25:10.707233 11255 net.cpp:369] relu1 -> pool1 (in-place)
I0315 05:25:10.707450 11255 net.cpp:124] Setting up relu1
I0315 05:25:10.707460 11255 net.cpp:131] Top shape: 15000 32 16 16 (122880000)
I0315 05:25:10.707464 11255 net.cpp:139] Memory required for data: 3318000000
I0315 05:25:10.707469 11255 layer_factory.hpp:77] Creating layer norm1
I0315 05:25:10.707479 11255 net.cpp:86] Creating Layer norm1
I0315 05:25:10.707484 11255 net.cpp:408] norm1 <- pool1
I0315 05:25:10.707489 11255 net.cpp:382] norm1 -> norm1
I0315 05:25:10.718019 11255 net.cpp:124] Setting up norm1
I0315 05:25:10.718041 11255 net.cpp:131] Top shape: 15000 32 16 16 (122880000)
I0315 05:25:10.718044 11255 net.cpp:139] Memory required for data: 3809520000
I0315 05:25:10.718050 11255 layer_factory.hpp:77] Creating layer conv2
I0315 05:25:10.718072 11255 net.cpp:86] Creating Layer conv2
I0315 05:25:10.718093 11255 net.cpp:408] conv2 <- norm1
I0315 05:25:10.718106 11255 net.cpp:382] conv2 -> conv2
I0315 05:25:10.721894 11255 net.cpp:124] Setting up conv2
I0315 05:25:10.721909 11255 net.cpp:131] Top shape: 15000 32 16 16 (122880000)
I0315 05:25:10.721912 11255 net.cpp:139] Memory required for data: 4301040000
I0315 05:25:10.721925 11255 layer_factory.hpp:77] Creating layer relu2
I0315 05:25:10.721933 11255 net.cpp:86] Creating Layer relu2
I0315 05:25:10.721937 11255 net.cpp:408] relu2 <- conv2
I0315 05:25:10.721942 11255 net.cpp:369] relu2 -> conv2 (in-place)
I0315 05:25:10.747459 11342 data_layer.cpp:73] Restarting data prefetching from start.
I0315 05:25:10.761034 11255 net.cpp:124] Setting up relu2
I0315 05:25:10.761055 11255 net.cpp:131] Top shape: 15000 32 16 16 (122880000)
I0315 05:25:10.761059 11255 net.cpp:139] Memory required for data: 4792560000
I0315 05:25:10.761065 11255 layer_factory.hpp:77] Creating layer pool2
I0315 05:25:10.761080 11255 net.cpp:86] Creating Layer pool2
I0315 05:25:10.761086 11255 net.cpp:408] pool2 <- conv2
I0315 05:25:10.761096 11255 net.cpp:382] pool2 -> pool2
I0315 05:25:10.761343 11255 net.cpp:124] Setting up pool2
I0315 05:25:10.761353 11255 net.cpp:131] Top shape: 15000 32 8 8 (30720000)
I0315 05:25:10.761358 11255 net.cpp:139] Memory required for data: 4915440000
I0315 05:25:10.761361 11255 layer_factory.hpp:77] Creating layer norm2
I0315 05:25:10.761369 11255 net.cpp:86] Creating Layer norm2
I0315 05:25:10.761374 11255 net.cpp:408] norm2 <- pool2
I0315 05:25:10.761381 11255 net.cpp:382] norm2 -> norm2
I0315 05:25:10.766362 11255 net.cpp:124] Setting up norm2
I0315 05:25:10.766384 11255 net.cpp:131] Top shape: 15000 32 8 8 (30720000)
I0315 05:25:10.766387 11255 net.cpp:139] Memory required for data: 5038320000
I0315 05:25:10.766393 11255 layer_factory.hpp:77] Creating layer conv3
I0315 05:25:10.766412 11255 net.cpp:86] Creating Layer conv3
I0315 05:25:10.766415 11255 net.cpp:408] conv3 <- norm2
I0315 05:25:10.766424 11255 net.cpp:382] conv3 -> conv3
I0315 05:25:10.770017 11255 net.cpp:124] Setting up conv3
I0315 05:25:10.770031 11255 net.cpp:131] Top shape: 15000 64 8 8 (61440000)
I0315 05:25:10.770035 11255 net.cpp:139] Memory required for data: 5284080000
I0315 05:25:10.770047 11255 layer_factory.hpp:77] Creating layer relu3
I0315 05:25:10.770056 11255 net.cpp:86] Creating Layer relu3
I0315 05:25:10.770059 11255 net.cpp:408] relu3 <- conv3
I0315 05:25:10.770066 11255 net.cpp:369] relu3 -> conv3 (in-place)
I0315 05:25:10.770244 11255 net.cpp:124] Setting up relu3
I0315 05:25:10.770254 11255 net.cpp:131] Top shape: 15000 64 8 8 (61440000)
I0315 05:25:10.770259 11255 net.cpp:139] Memory required for data: 5529840000
I0315 05:25:10.770262 11255 layer_factory.hpp:77] Creating layer pool3
I0315 05:25:10.770269 11255 net.cpp:86] Creating Layer pool3
I0315 05:25:10.770274 11255 net.cpp:408] pool3 <- conv3
I0315 05:25:10.770280 11255 net.cpp:382] pool3 -> pool3
I0315 05:25:10.772857 11255 net.cpp:124] Setting up pool3
I0315 05:25:10.772871 11255 net.cpp:131] Top shape: 15000 64 4 4 (15360000)
I0315 05:25:10.772876 11255 net.cpp:139] Memory required for data: 5591280000
I0315 05:25:10.772879 11255 layer_factory.hpp:77] Creating layer ip1
I0315 05:25:10.772891 11255 net.cpp:86] Creating Layer ip1
I0315 05:25:10.772897 11255 net.cpp:408] ip1 <- pool3
I0315 05:25:10.772907 11255 net.cpp:382] ip1 -> ip1
I0315 05:25:10.773187 11255 net.cpp:124] Setting up ip1
I0315 05:25:10.773196 11255 net.cpp:131] Top shape: 15000 10 (150000)
I0315 05:25:10.773200 11255 net.cpp:139] Memory required for data: 5591880000
I0315 05:25:10.773207 11255 layer_factory.hpp:77] Creating layer ip1_ip1_0_split
I0315 05:25:10.773216 11255 net.cpp:86] Creating Layer ip1_ip1_0_split
I0315 05:25:10.773219 11255 net.cpp:408] ip1_ip1_0_split <- ip1
I0315 05:25:10.773226 11255 net.cpp:382] ip1_ip1_0_split -> ip1_ip1_0_split_0
I0315 05:25:10.773233 11255 net.cpp:382] ip1_ip1_0_split -> ip1_ip1_0_split_1
I0315 05:25:10.773272 11255 net.cpp:124] Setting up ip1_ip1_0_split
I0315 05:25:10.773278 11255 net.cpp:131] Top shape: 15000 10 (150000)
I0315 05:25:10.773303 11255 net.cpp:131] Top shape: 15000 10 (150000)
I0315 05:25:10.773308 11255 net.cpp:139] Memory required for data: 5593080000
I0315 05:25:10.773310 11255 layer_factory.hpp:77] Creating layer accuracy
I0315 05:25:10.773368 11255 net.cpp:86] Creating Layer accuracy
I0315 05:25:10.773375 11255 net.cpp:408] accuracy <- ip1_ip1_0_split_0
I0315 05:25:10.773381 11255 net.cpp:408] accuracy <- label_concat_label_0_split_0
I0315 05:25:10.773388 11255 net.cpp:382] accuracy -> accuracy
I0315 05:25:10.779235 11255 net.cpp:124] Setting up accuracy
I0315 05:25:10.779291 11255 net.cpp:131] Top shape: 1 (1)
I0315 05:25:10.779304 11255 net.cpp:139] Memory required for data: 5593080004
I0315 05:25:10.779316 11255 layer_factory.hpp:77] Creating layer loss
I0315 05:25:10.779332 11255 net.cpp:86] Creating Layer loss
I0315 05:25:10.779345 11255 net.cpp:408] loss <- ip1_ip1_0_split_1
I0315 05:25:10.779358 11255 net.cpp:408] loss <- label_concat_label_0_split_1
I0315 05:25:10.779371 11255 net.cpp:382] loss -> loss
…
